race/dqn_model_data/saved1/dqn_policy.pt (torch, 3671 bytes, 6 tensors)

fc1.weight f4 [16, 6]
000000 bf e1 97 3d 4c d8 33 be 24 57 04 be 42 01 b2 3e
       0.074161045 -0.1756298 -0.12923867 0.34766585
000010 fa 62 f9 3e 6c d2 1c c1 38 9c e6 bc 57 42 b6 3e
       0.48708326 -9.801373 -0.028150663 0.35597488
000020 de 02 c7 be 05 fc 08 3e fb 88 e5 3b 7b f3 70 c0
       -0.38869375 0.13377388 0.0070048547 -3.7648609
000030 f6 53 34 3e b0 13 93 3c 44 54 8a be 20 7c c3 3c
       0.17610154 0.017953724 -0.27017415 0.023862898
000040 84 48 47 3d 61 48 4e 41 3b 9f 8e 3e 5f fe 80 3c
       0.04865314 12.892671 0.27855858 0.015746294
000050 bf 4d 79 bd 21 b7 9e 3e 01 b6 50 3e 7f 9e 4f c1
       -0.06086516 0.3099909 0.20381929 -12.976195
000060 87 4b 9a 3e 43 c7 b8 be 6a b9 44 3e e4 fd 0f 3e
       0.30135748 -0.36089525 0.19211355 0.14061695
000070 84 1e 3c 3e 42 20 69 41 c7 9c aa be b4 45 b4 3d
       0.18371016 14.570375 -0.33322737 0.08802357
000080 0f 7c 86 3e d3 25 65 3e 29 69 8c be 74 fb 44 41
       0.26266524 0.2237771 -0.2742398 12.31139
000090 cb dc 22 3d 06 aa bf bd 52 6b c7 be e9 a5 71 3e
       0.039761346 -0.09358601 -0.38949066 0.23598446
0000a0 b8 69 ef be 0e bd b3 bf 80 b7 f0 bd 57 13 d2 be
       -0.46760345 -1.404207 -0.1175375 -0.4103038
0000b0 ec a3 04 3d 68 8f 2c 3d 0a cc 8e be a6 cd 43 41
       0.03238289 0.04212895 -0.27890044 12.237707
0000c0 5a 0e 18 bb 16 ff 3d be 53 85 04 3f 7d 8c 08 be
       -0.0023201914 -0.18554339 0.51765937 -0.13334842
0000d0 82 93 8a 3e 6f c9 3c c0 c1 41 0c bf 05 a0 82 3e
       0.27065665 -2.9497945 -0.5478783 0.2551271
0000e0 3a 97 b8 3e de 15 aa 3d bf 9d 9e bd 0f b8 b8 bf
       0.36052877 0.08304952 -0.077449314 -1.443117
0000f0 97 36 82 be ac 10 92 be ac 29 c6 3e b0 05 b7 be
       -0.25432274 -0.28528345 0.38703668 -0.35746527
000100 55 f9 cd be 1a 58 c6 3e 0c a4 9b 3d 3c ab 8f 3d
       -0.40229288 0.3873909 0.07599649 0.07015082
000110 b1 c8 f1 3d c1 3b 77 be d7 61 59 3e e0 f6 4c 41
       0.11805857 -0.24143888 0.21228729 12.810272
000120 22 17 05 3e 41 84 43 3e 1a d1 7d be 7b d4 95 bd
       0.12997106 0.1909342 -0.24786797 -0.07315918
000130 2a 53 24 3d 95 b2 47 41 56 8a ac 3c 2f a1 f0 bd
       0.040118374 12.481099 0.021062057 -0.11749493
000140 54 2a 93 3e 76 50 b6 3e 15 41 c5 bd dc 80 63 41
       0.2874323 0.35608262 -0.09631554 14.21896
000150 af 13 94 3d 1f 7e 52 3d 9e 82 33 3e eb 1f 40 3d
       0.07230317 0.05138981 0.17530295 0.04690544
000160 79 2c 42 3d 62 1e 39 c1 8c 64 a7 be cf 0b a6 3e
       0.047405694 -11.569918 -0.326939 0.32430884
000170 39 07 38 be a8 55 a1 3e dc 6e 54 3e af 86 66 41
       -0.17971505 0.31510663 0.20745414 14.407882

fc1.bias f4 [16]
000000 16 e6 57 3e 79 72 df 3e 0a 80 4c bf aa 36 15 3f
       0.21083865 0.43642023 -0.7988287 0.58286536
000010 81 84 de be d1 35 c9 be 26 a2 be bd 94 3d 6b be
       -0.43460467 -0.3929887 -0.09308271 -0.22972709
000020 cd 89 44 3f 31 f8 67 3f ba 6d 96 be e1 65 27 bf
       0.7677277 0.90613085 -0.2938059 -0.6538983
000030 8d ed 25 bf e7 75 94 be 5b 95 c6 3e 14 95 6b bd
       -0.648156 -0.28996202 0.38785824 -0.05751522

fc2.weight f4 [16, 16]
000000 60 02 68 3d 42 c8 36 be 64 4b 61 3e 90 ea 8a bd
       0.05664289 -0.1784983 0.22001415 -0.067830205
000010 06 0f 58 be 30 93 10 3d a0 29 30 3d 50 76 94 bc
       -0.21099481 0.03529662 0.043008447 -0.018122822
000020 68 03 4e 3d 90 27 ac 3d 0c d5 e4 bd 4a 2e 3e be
       0.050296217 0.084059834 -0.11173448 -0.18572345
000030 1c b4 f6 bd 8e b7 61 be c4 43 0f 3e 5c e5 10 be
       -0.12046072 -0.22042677 0.13990694 -0.14149994
000040 64 7f 34 be a0 c7 46 be cf 5e 5e 3e fd 41 b7 3b
       -0.1762672 -0.19412088 0.21715854 0.005592583
000050 d8 38 22 be 55 13 13 3e 35 dc 92 3d 5a fa 41 3d
       -0.15841997 0.14362843 0.071709074 0.047357894
000060 d6 90 50 be b8 01 79 3d c8 f9 ac 3d 87 59 bc bd
       -0.2036775 0.060792655 0.084460795 -0.091967635
000070 43 a3 09 be 98 3d 1e 3d 3a 04 e6 ba 46 2a 77 be
       -0.13441186 0.03863296 -0.0017548867 -0.2413722
000080 cc c3 4f 3e bb 0d 1f bf 98 c3 38 3e cb 4b b5 3e
       0.20289534 -0.62130326 0.18043363 0.35409388
000090 c1 dc 11 3e df 36 49 be 40 ea fd 3d 34 d3 9e 3d
       0.14244367 -0.19649838 0.12398195 0.077551275
0000a0 0b 37 13 3f ca 83 90 be 78 f2 10 3e 95 45 9c 3c
       0.57505864 -0.28225547 0.14154994 0.019076148
0000b0 4d f1 e3 3d 0d 26 94 be 2d e8 c9 3e f8 0e d2 be
       0.11130009 -0.2893528 0.3943495 -0.41027045
0000c0 d6 a2 bc be 6c 31 94 be 81 37 7c 3e df aa c7 bd
       -0.36842984 -0.28943956 0.24630548 -0.09749388
0000d0 ff 4d f7 3e e1 3a 88 3e 98 ec 11 bd 6d 2d b1 3e
       0.48301694 0.2660742 -0.035626024 0.3460497
0000e0 36 17 02 3e 86 51 2b bf 30 57 ab 3c a7 e9 04 3f
       0.12704167 -0.6692127 0.020915598 0.51919025
0000f0 ff 2f 21 3e cc 85 c7 3e 09 e3 16 3d aa 58 cd 3e
       0.15740965 0.38969266 0.03683761 0.40106708
000100 64 fe 36 3d 40 cd 03 be 6e 0a cf bd 1f bc 1c be
       0.0446762 -0.12871265 -0.10109411 -0.15306138
000110 f1 61 b3 bd 04 a7 37 3d 69 b7 47 3d ef cf 2f be
       -0.08758915 0.044837013 0.048758898 -0.17169164
000120 ce 2e 5d be b0 07 0d bd 90 4c 48 bd ca cd 59 be
       -0.21599886 -0.03443116 -0.04890114 -0.21269909
000130 39 84 b2 3d 8f f7 bf bd 0b 64 de bc 24 b2 d5 3d
       0.08716626 -0.0937339 -0.027147314 0.10434368
000140 1e be 84 3e 81 16 30 be 0c df 12 bf be e4 2f 3f
       0.25926298 -0.17196085 -0.5737159 0.6870841
000150 8e 3e 47 be 56 05 36 be e2 90 be be b7 f2 ce be
       -0.19457456 -0.17775473 -0.37219912 -0.40419552
000160 73 b9 73 be 9a 0a d5 be 2c ec 2b 3e 71 3a 1b bf
       -0.23801212 -0.4160965 0.16789311 -0.6063605
000170 ce ef fe bd 4c 25 a8 3e 97 c5 f8 3e 4e 6e 25 be
       -0.12448083 0.32840955 0.4858825 -0.16155359
000180 7c 44 3d be 34 59 3f be 4a 23 99 3c c8 18 a0 3d
       -0.18483156 -0.18686372 0.018693585 0.07817227
000190 85 11 2c bc 4c 04 c1 3d 06 bb 0b be 6c 1e 29 be
       -0.010502224 0.09424648 -0.13645563 -0.16515511
0001a0 b8 ef 7e bd 64 16 ba bd 84 a9 1d 3e 0c 8d e5 bd
       -0.062240332 -0.09086302 0.15396696 -0.11208543
0001b0 e9 71 6c 3d c3 96 1d be 5c ac 00 3d d1 25 5b bd
       0.05772582 -0.15389542 0.031414375 -0.05350286
0001c0 5a 1b 6c be b9 21 a4 be e4 04 05 3f 2b 43 e5 bc
       -0.23057309 -0.32056978 0.5196059 -0.02798613
0001d0 c1 88 f3 3e 22 a7 15 3e bd 7a 51 be ff 0c 32 3e
       0.47565272 0.14614537 -0.20456977 0.1738777
0001e0 54 78 dd be e2 20 23 be 6e ab 26 3e bb c3 d1 3e
       -0.43255866 -0.15930513 0.16276333 0.40969643
0001f0 32 18 2a 3d fb 60 4f 3e af fa a0 3d f3 52 1f 3f
       0.04152698 0.20251839 0.07860314 0.62235945
000200 12 44 5c 3e 7b 91 ca bd 1d 94 16 3c bc a0 42 3e
       0.21510342 -0.098910294 0.009190586 0.19006628
000210 9b d8 ad bd 03 07 f5 be f7 68 84 3e 11 36 3f bf
       -0.0848858 -0.47856912 0.25861332 -0.74691874
000220 83 86 e2 be 42 45 b1 be a6 a4 7a be b9 75 1d bf
       -0.4424325 -0.34623152 -0.24476871 -0.61507756
000230 91 3f 85 3d 06 55 a2 be 9b e1 5a 3d cf ea b9 be
       0.06506265 -0.31705493 0.05343781 -0.36311957
000240 14 d0 be 3d ca 5d 5d be 17 5b 78 bd 94 c0 f8 3d
       0.093170315 -0.21617809 -0.060633745 0.12146106
000250 aa 2f f3 bc 70 42 21 be a3 9b 38 be b6 18 f1 bd
       -0.029685814 -0.15748 -0.1802812 -0.11772291
000260 f8 6d cd bd d0 d6 df 3d 58 81 62 3e f1 6f 14 be
       -0.100307405 0.10929644 0.22119653 -0.14495827
000270 cc 72 da 3b f9 96 1e bd 3d 41 6e bd ed a2 57 be
       0.006666517 -0.038718197 -0.058167685 -0.21058245
000280 da 21 80 be ff ef 38 3e 51 ef 88 bb 4f f6 8e be
       -0.25025827 0.18060301 -0.0041789194 -0.27922294
000290 5c e0 b9 bd 4d 3e c7 3b 9f 3f ce bc cc e9 1c 3e
       -0.09075996 0.006080425 -0.025176821 0.15323561
0002a0 de 00 47 be 5d 31 af 3d e2 e6 09 3e 29 24 21 3e
       -0.19433925 0.08554337 0.13466981 0.1573645
0002b0 f8 68 7e be 98 e5 cf 3d fa 90 31 be 02 3f 53 bd
       -0.2484473 0.101512134 -0.1734046 -0.05157376
0002c0 e1 8b 99 bd ba 5d 35 be b3 f2 0f be e9 5d a7 3b
       -0.07497383 -0.17711535 -0.14057426 0.0051076305
0002d0 60 dc 82 be b0 c9 5a 3d 18 3f 69 3e 78 44 37 3e
       -0.25558758 0.053415 0.22777975 0.17897213
0002e0 6e 8a f1 3d f7 0a 2c bd 2a 19 33 3e bf de ac 3d
       0.117939815 -0.042002644 0.17490068 0.08440923
0002f0 d4 98 92 bd b7 c4 52 bd 79 de e6 bd d0 19 01 be
       -0.07158056 -0.051457133 -0.11272902 -0.12607503
000300 26 00 de be 7a b4 c2 be 6a 0f 25 3f 16 06 a6 be
       -0.43359488 -0.38028318 0.64476645 -0.32426518
000310 48 2d 02 3f a2 42 03 3f e0 ef 96 be cb c8 8b 3e
       0.50850344 0.5127355 -0.29479885 0.2730163
000320 8e f3 b9 be 97 4a dd be 20 9a df 3c d2 dc 15 3f
       -0.3631863 -0.4322097 0.027295172 0.5854007
000330 67 8b ca 3e 5d 26 01 3f b5 41 84 be af 91 d5 3e
       0.3955948 0.5044916 -0.2583138 0.4171271
000340 9b 06 38 be 97 16 1a 3e b6 ff 89 3c ee 0e 62 be
       -0.1797127 0.1504768 0.016845565 -0.22076008
000350 7a d2 71 be fd 8f 06 be d3 4f 3a 3e 48 6a 1d 3d
       -0.23615447 -0.13140865 0.18194513 0.038431436
000360 c8 bb 96 bd 57 b3 14 3e c4 55 a8 3d 20 57 22 3c
       -0.07360035 0.14521538 0.082194835 0.0099084675
000370 9a af 64 be a9 c3 31 3e 92 24 72 be 03 c3 04 ba
       -0.22332612 0.17359795 -0.23646763 -0.00050644594
000380 2c 62 ff be d0 85 22 bf 5e 1e 4a 3e 25 60 04 bf
       -0.49879587 -0.6348543 0.19738147 -0.51709205
000390 b3 32 19 3e 4e 3f 02 3c 99 d2 5e be c2 4e 28 3e
       0.14960746 0.007949663 -0.21760024 0.16436294
0003a0 79 45 46 bf 87 8e 76 bf 68 b8 76 be 4b b2 11 3e
       -0.77449757 -0.9631123 -0.24093783 0.1422817
0003b0 7c b9 60 3d 3f bc 9f 3d 8f ed 76 be e2 86 d9 bd
       0.05486439 0.07799577 -0.24114059 -0.1062143
0003c0 ab 53 de 3b a5 17 f4 bd a4 6a 8a 3d c1 b1 8b be
       0.0067848763 -0.11918572 0.06758621 -0.27284053
0003d0 39 ca b7 bd ca 20 66 3d ce 4e 33 3c c7 6b 24 3e
       -0.08974118 0.056183614 0.0109440815 0.16056739
0003e0 3c 10 b0 3c 9a e9 9c bd 74 41 c5 3d c3 de 06 be
       0.021492116 -0.076617435 0.09631625 -0.13170914
0003f0 5c 4c f1 bd 77 65 3d 3e 7f fb 72 be ce 1b 20 be
       -0.117821425 0.18495737 -0.2372875 -0.15635607

fc2.bias f4 [16]
000000 02 60 16 be 19 df 02 bd c1 cf 21 3e a3 27 85 be
       -0.14685062 -0.031951044 0.15801908 -0.26006803
000010 cd 42 d0 bd 6b 34 09 3e a7 d3 f1 3d 7c ee da be
       -0.10168991 0.13398902 0.118079476 -0.42760074
000020 5f 80 bf bd 38 ad c6 3d 2b c0 91 be 70 ee bf bc
       -0.09350657 0.097010076 -0.28466925 -0.023429126
000030 d3 0d 03 bf d7 48 0f 3e 76 4e 37 bf df 73 9d bd
       -0.5119297 0.1399263 -0.71604097 -0.07688116

fc3.weight f4 [4, 16]
000000 b0 14 54 bd 19 b9 09 3e 48 44 fa 3d 12 2e b3 3f
       -0.05177754 0.13449515 0.12220055 1.3998435
000010 bd b1 65 3e be cb 40 bf c8 4b 83 3e 86 21 a7 3f
       0.22431083 -0.75310886 0.25643754 1.3057106
000020 5e 48 5d be d0 bf ba 3d d0 58 74 bd be 2e 4d be
       -0.21609637 0.091186166 -0.05965501 -0.20037362
000030 63 9d ce 3f e0 54 41 be f4 ff 90 3f b4 54 13 3d
       1.6141781 -0.18880033 1.1328111 0.03596945
000040 b4 92 5b be 6a b5 33 be a6 a4 8a 3d b4 d0 bb 3f
       -0.21442682 -0.17549673 0.067696854 1.4673066
000050 e6 b8 e1 3d 15 0c 3f bf 69 23 c5 bd 17 d4 a8 3f
       0.11021595 -0.7462781 -0.096258946 1.3189725
000060 89 1d 8e be 0b 04 31 3e 80 65 d0 3c 44 12 b0 3d
       -0.2775691 0.17286699 0.025439024 0.08597234
000070 a6 5e c6 3f 04 f9 df 3c e7 56 97 3f 28 4b d2 3c
       1.5497634 0.02734042 1.1823395 0.025670603
000080 00 ad 98 3b a1 27 fa bd 4a 70 ae 3d 7b 0d a2 3f
       0.004659295 -0.1221459 0.08517511 1.2660364
000090 b6 09 3e be 11 ce 25 bf 6a 46 87 3a c9 a7 ad 3f
       -0.18558392 -0.6476756 0.0010320668 1.3566829
0000a0 9a c3 69 3c 8d 05 8e bb be 2e 11 3d 60 b0 06 3d
       0.014267826 -0.004334158 0.035444967 0.032883048
0000b0 f7 f7 d8 3f 0e 88 5a bc 54 c4 84 3f 71 21 75 3e
       1.6950673 -0.013338102 1.0372415 0.23938538
0000c0 c0 5b c6 bb 5a 10 4d be 5d 1c 0a 3d 17 34 d1 3f
       -0.006053418 -0.20025769 0.033718456 1.6344022
0000d0 e4 eb 3e be db 74 4e bf 3e eb 4f be 39 1b a0 3f
       -0.18644673 -0.8064706 -0.20304582 1.2508308
0000e0 93 4f 31 be 4c 1a 00 be cf 53 f8 3c bc 74 84 3d
       -0.17315511 -0.12510031 0.0303134 0.06467578
0000f0 f8 6e ba 3f 6e 28 7f be 81 83 89 3f 8e db 50 bb
       1.4565115 -0.24917766 1.0743257 -0.0031869146

fc3.bias f4 [4]
000000 bd 3d 06 3f 89 0e 72 3f da 44 9d 3f 87 c8 01 3f
       0.52437955 0.9455343 1.2286637 0.50696605
