race/dqn_model_data/saved2/dqn_policy.pt (torch, 3671 bytes, 6 tensors)

fc1.weight f4 [16, 6]
0	0xbc658dd2	-0.014010863
1	0xbe8ace60	-0.27110577
2	0xbe2ac897	-0.16678081
3	0x3e93bf7a	0.28857023
4	0x3e7c68fd	0.24649425
5	0xc13f09da	-11.939905
6	0xbe0a994d	-0.13535042
7	0x3ee6c075	0.45068708
8	0xbf18fb6b	-0.59758633
9	0x3e82c5be	0.2554149
10	0x3d062f2a	0.032759823
11	0xc0ab8d55	-5.3610024
12	0x3e580f89	0.21099676
13	0x3bee1e44	0.0072667915
14	0xbe8d8ca1	-0.27646354
15	0x3cce80ac	0.02520784
16	0xbe3fe7d6	-0.18740782
17	0x4157b834	13.482471
18	0x3de6c1f5	0.11267463
19	0xbe20efb1	-0.15716435
20	0xbe604632	-0.21901777
21	0x3e0d4804	0.13797003
22	0x3d5375f0	0.051626146
23	0xc16ffdf9	-14.999505
24	0x3ea2d293	0.3180128
25	0xbec1a45a	-0.37820703
26	0x3e53c916	0.20682177
27	0x3df8e1ea	0.12152465
28	0x3d460ec4	0.048353925
29	0x4175939f	15.34854
30	0xbe72ce39	-0.2371148
31	0x3dbbd958	0.091723144
32	0x3ea4e0ee	0.32202858
33	0x3e5bd801	0.21469118
34	0xbecd6ada	-0.40120584
35	0x415189d9	13.096154
36	0x3d15232c	0.036410496
37	0xbd8bc7d0	-0.068252206
38	0xbf3d05c6	-0.73836935
39	0x3e868bd7	0.26278564
40	0xbee20fcd	-0.4415268
41	0xc02d0f94	-2.7040758
42	0xbe459693	-0.19295721
43	0xbf001332	-0.5002929
44	0xbd1f21eb	-0.038850706
45	0xbd3f7986	-0.046746753
46	0xbeb7eb95	-0.35921922
47	0x41426103	12.1486845
48	0xbd704dd6	-0.05866798
49	0xbebf1034	-0.3731705
50	0x3f3c1674	0.7347176
51	0xbd14f77c	-0.036368832
52	0x3e3f3b10	0.18674874
53	0xc03a4eb9	-2.9110548
54	0xbf629a8d	-0.88517076
55	0x3e562d65	0.20915754
56	0x3eb53b54	0.35396826
57	0x3e8881c8	0.26661515
58	0x3d36ae3b	0.044599753
59	0xc01441af	-2.316509
60	0xbe823697	-0.25432274
61	0xbe9210ac	-0.28528345
62	0x3ec629ac	0.38703668
63	0xbeb705b0	-0.35746527
64	0xbecdf955	-0.40229288
65	0x3ec6581a	0.3873909
66	0x3dbdf1bb	0.09274622
67	0x3d70616f	0.05868667
68	0x3e2b121e	0.1670613
69	0xbe909e51	-0.28245786
70	0x3defa876	0.11702053
71	0x4152e2e2	13.180391
72	0x3d1c4f4f	0.038161572
73	0x3d44e89e	0.048073404
74	0xbf0caea3	-0.54953974
75	0xbdde88c8	-0.10865933
76	0xbee8b4c8	-0.45450425
77	0x415029e7	13.01023
78	0x3da556ff	0.08073234
79	0xbdefbc7f	-0.11705875
80	0x3ea84c69	0.32870796
81	0x3eb5a6a7	0.35478708
82	0xbe500332	-0.20313719
83	0x416c6f80	14.777222
84	0xbd360bff	-0.044445034
85	0x3d296729	0.041358147
86	0x3e6341d4	0.2219308
87	0x3e0f9b82	0.14024165
88	0xbc378b6a	-0.0112026725
89	0xc15487af	-13.283126
90	0xbe8b82c7	-0.27248213
91	0x3ea88060	0.32910442
92	0xbdf3cf29	-0.11904747
93	0x3e9ecac2	0.31014067
94	0x3df512fe	0.11966513
95	0x417366f4	15.212635

fc1.bias f4 [16]
0	0x3e1b2120	0.15149355
1	0x3f0704ec	0.52741885
2	0xbf6596be	-0.8968314
3	0x3ed923b9	0.42410067
4	0xbf0d2c69	-0.5514589
5	0xbeeb7372	-0.45986515
6	0xbd8af942	-0.067858234
7	0xbea32728	-0.3186581
8	0x3f4e4a37	0.8058199
9	0x3f8eab82	1.114609
10	0xbe966dba	-0.2938059
11	0xbf495159	-0.7863975
12	0xbf552eb9	-0.8327442
13	0xbebccb85	-0.36874023
14	0x3eb0d2b8	0.34535766
15	0xbe0e24ff	-0.138813

fc2.weight f4 [16, 16]
0	0x3d680260	0.05664289
1	0xbe36c842	-0.1784983
2	0x3e614b64	0.22001415
3	0xbd8aea90	-0.067830205
4	0xbe580f06	-0.21099481
5	0x3d109330	0.03529662
6	0x3d3029a0	0.043008447
7	0xbc947650	-0.018122822
8	0x3d4e0368	0.050296217
9	0x3dac2790	0.084059834
10	0xbde4d50c	-0.11173448
11	0xbe3e2e4a	-0.18572345
12	0xbdf6b41c	-0.12046072
13	0xbe61b78e	-0.22042677
14	0x3e0f43c4	0.13990694
15	0xbe10e55c	-0.14149994
16	0xbe347f64	-0.1762672
17	0xbe46c7a0	-0.19412088
18	0x3e5e5ecf	0.21715854
19	0x3bb741fd	0.005592583
20	0xbe2238d8	-0.15841997
21	0x3e131355	0.14362843
22	0x3d92dc35	0.071709074
23	0x3d41fa5a	0.047357894
24	0xbe5090d6	-0.2036775
25	0x3d7901b8	0.060792655
26	0x3dacf9c8	0.084460795
27	0xbdbc5987	-0.091967635
28	0xbe09a343	-0.13441186
29	0x3d1e3d98	0.03863296
30	0xbae6043a	-0.0017548867
31	0xbe772a46	-0.2413722
32	0x3f185956	0.59511316
33	0xbef104b2	-0.47073895
34	0x3e94bf0a	0.29052
35	0x3eb8bbdf	0.36080834
36	0xbe2d584b	-0.16928212
37	0xbe51aa5e	-0.20475146
38	0x3da8c248	0.08240181
39	0x3d9490fd	0.07254217
40	0x3ee94f50	0.45568323
41	0x3e5a0948	0.21292603
42	0x3e10f278	0.14154994
43	0xbd4d3320	-0.050097585
44	0x3ea97a62	0.33101183
45	0xbf05468e	-0.5206078
46	0x3f197b70	0.59953976
47	0xbe309407	-0.17243968
48	0xbeb2108f	-0.34778258
49	0xbed1c8c6	-0.4097349
50	0xbdfd2a3b	-0.123615704
51	0xbd50fc09	-0.05102161
52	0x3e9be787	0.3045008
53	0x3e15a3ae	0.1461322
54	0xbe766e63	-0.24065547
55	0x3e832fe0	0.25622463
56	0x3d90b2e8	0.07065374
57	0xbf219659	-0.6312004
58	0x3cab5730	0.020915598
59	0x3ee2fb75	0.4433247
60	0xbe3e7bc4	-0.186019
61	0x3e6f6223	0.2337728
62	0xbeb07ef7	-0.34471866
63	0x3e683468	0.22676241
64	0x3d36fe64	0.0446762
65	0xbe03cd40	-0.12871265
66	0xbdcf0a6e	-0.10109411
67	0xbe1cbc1f	-0.15306138
68	0xbdb361f1	-0.08758915
69	0x3d37a704	0.044837013
70	0x3d47b769	0.048758898
71	0xbe2fcfef	-0.17169164
72	0xbe5d2ece	-0.21599886
73	0xbd0d07b0	-0.03443116
74	0xbd484c90	-0.04890114
75	0xbe59cdca	-0.21269909
76	0x3db28439	0.08716626
77	0xbdbff78f	-0.0937339
78	0xbcde640b	-0.027147314
79	0x3dd5b224	0.10434368
80	0x3e281b1e	0.16416594
81	0x3e0c6cb4	0.13713342
82	0xbeda3e31	-0.42625573
83	0x3f0e2d31	0.55537707
84	0x3daccd2b	0.0843757
85	0xbe03c5b6	-0.1286839
86	0xbf5521b1	-0.83254534
87	0xbece9284	-0.40346158
88	0xbee60d4f	-0.4493203
89	0xbfa84334	-1.3145509
90	0x3e2bec2c	0.16789311
91	0xbf54e4fa	-0.8316189
92	0xbee48437	-0.44632122
93	0x3f26742b	0.6502101
94	0x3f0ef0ad	0.5583599
95	0x3dd9949f	0.1062405
96	0xbe3d447c	-0.18483156
97	0xbe3f5934	-0.18686372
98	0x3c99234a	0.018693585
99	0x3da018c8	0.07817227
100	0xbc2c1185	-0.010502224
101	0x3dc1044c	0.09424648
102	0xbe0bbb06	-0.13645563
103	0xbe291e6c	-0.16515511
104	0xbd7eefb8	-0.062240332
105	0xbdba1664	-0.09086302
106	0x3e1da984	0.15396696
107	0xbde58d0c	-0.11208543
108	0x3d6c71e9	0.05772582
109	0xbe1d96c3	-0.15389542
110	0x3d00ac5c	0.031414375
111	0xbd5b25d1	-0.05350286
112	0xbd9344d4	-0.07190862
113	0xbe70a6b7	-0.23501097
114	0x3e18a454	0.14906436
115	0x3dd04d95	0.101710476
116	0x3eb64e12	0.35606438
117	0x3d8efd79	0.0698194
118	0xbe80a2e7	-0.25124285
119	0x3daa0f50	0.08303702
120	0xbed9036b	-0.4238542
121	0xbe401889	-0.1875936
122	0x3e26ab6e	0.16276333
123	0x3edaa040	0.42700386
124	0xbe944b86	-0.2896387
125	0x3df36e0a	0.11886223
126	0xbe902502	-0.28153235
127	0x3ed279cd	0.41108552
128	0x3e5c4412	0.21510342
129	0xbdca917b	-0.098910294
130	0x3c16941d	0.009190586
131	0x3e42a0bc	0.19006628
132	0xbdadd89b	-0.0848858
133	0xbef50703	-0.47856912
134	0x3e8468f7	0.25861332
135	0xbf3f3611	-0.74691874
136	0xbee28683	-0.4424325
137	0xbeb14542	-0.34623152
138	0xbe7aa4a6	-0.24476871
139	0xbf1d75b9	-0.61507756
140	0x3d853f91	0.06506265
141	0xbea25506	-0.31705493
142	0x3d5ae19b	0.05343781
143	0xbeb9eacf	-0.36311957
144	0x3dbed014	0.093170315
145	0xbe5d5dca	-0.21617809
146	0xbd785b17	-0.060633745
147	0x3df8c094	0.12146106
148	0xbcf32faa	-0.029685814
149	0xbe214270	-0.15748
150	0xbe389ba3	-0.1802812
151	0xbdf118b6	-0.11772291
152	0xbdcd6df8	-0.100307405
153	0x3ddfd6d0	0.10929644
154	0x3e628158	0.22119653
155	0xbe146ff1	-0.14495827
156	0x3bda72cc	0.006666517
157	0xbd1e96f9	-0.038718197
158	0xbd6e413d	-0.058167685
159	0xbe57a2ed	-0.21058245
160	0xbe95e224	-0.29274094
161	0x3e0ae975	0.1356562
162	0xbd4e329c	-0.050341234
163	0xbea45961	-0.3209944
164	0xbe0f4ede	-0.13994929
165	0xbd1efc56	-0.038814865
166	0xbd53816c	-0.0516371
167	0x3e1ce9cc	0.15323561
168	0xbe544307	-0.20728694
169	0x3d396bda	0.04526887
170	0x3e09e6e2	0.13466981
171	0x3ddd2958	0.10798901
172	0xbe96ee0d	-0.29478493
173	0x3d5d5c04	0.05404283
174	0xbe3190fa	-0.1734046
175	0xbdc7c670	-0.09754646
176	0xbdc366b5	-0.09541074
177	0xbe355dba	-0.17711535
178	0xbe0ff2b3	-0.14057426
179	0x3ba75de9	0.0051076305
180	0xbe8d5315	-0.2760245
181	0x3d5ac9b0	0.053415
182	0x3e693f18	0.22777975
183	0x3e374478	0.17897213
184	0x3dc7af9a	0.0975029
185	0xbd2c0af7	-0.042002644
186	0x3e33192a	0.17490068
187	0x3d8303eb	0.06397232
188	0xbd9298d4	-0.07158056
189	0xbd933d2f	-0.07189404
190	0xbde6de79	-0.11272902
191	0xbe16073a	-0.14651194
192	0xbeaa30b3	-0.3324028
193	0xbd66d345	-0.056353826
194	0x3e994fd2	0.2994371
195	0xbe20b164	-0.15692669
196	0x3e9c2c12	0.30502373
197	0x3eec5c93	0.4616438
198	0xbe2862f7	-0.16444002
199	0x3e3a6dee	0.18205997
200	0xbf149ab2	-0.58048546
201	0xbf0b8a5d	-0.54508
202	0x3cdf9a20	0.027295172
203	0x3f09c6ec	0.53819156
204	0x3e0e2674	0.13881856
205	0x3ec410c4	0.3829404
206	0xbee7ec6a	-0.45297557
207	0x3e4ce1a7	0.20007955
208	0xbe721071	-0.23639084
209	0x3da575ac	0.08079085
210	0xbd4d6056	-0.0501407
211	0xbe906444	-0.28201497
212	0xbe986ab7	-0.29768917
213	0xbe4d441a	-0.2004551
214	0x3dea0231	0.11426199
215	0x3d1d6a48	0.038431436
216	0xbd96bbc8	-0.07360035
217	0x3db2a5c0	0.087230206
218	0x3da855c4	0.082194835
219	0xbd1bed46	-0.03806808
220	0xbe956dc6	-0.29185313
221	0x3dd5ff2c	0.10449061
222	0xbe7dd186	-0.24786958
223	0xbd8f28b9	-0.06990189
224	0xbf07f8e3	-0.53114146
225	0xbf281d7e	-0.6567
226	0x3de92683	0.11384299
227	0xbf08c374	-0.5342324
228	0x3d886280	0.066594124
229	0xbd93ae1a	-0.072109416
230	0xbe5ed299	-0.21760024
231	0x3e00119b	0.12506716
232	0xbf622cbd	-0.88349515
233	0xbf6e68a1	-0.931284
234	0xbe76b868	-0.24093783
235	0x3d6dc714	0.058051184
236	0xbcea8cf5	-0.028631667
237	0xbb555b77	-0.0032555738
238	0xbe76ed8f	-0.24114059
239	0xbe408055	-0.18798955
240	0xbca4a7e6	-0.020099591
241	0xbdf417a5	-0.11918572
242	0x3d26de30	0.04073924
243	0xbe8850ed	-0.2662424
244	0xbdeea805	-0.11653141
245	0x3d1e6d1e	0.03867828
246	0x3c334ece	0.0109440815
247	0x3e246bc7	0.16056739
248	0xbc019f1d	-0.007911471
249	0xbda159f0	-0.07878482
250	0x3dc54174	0.09631625
251	0xbe2645c2	-0.16237548
252	0xbe091f65	-0.13390882
253	0x3e260bfc	0.16215509
254	0xbe6aef1e	-0.22942778
255	0xbe3b01fb	-0.18262474

fc2.bias f4 [16]
0	0xbe166002	-0.14685062
1	0xbd02df19	-0.031951044
2	0xbc884569	-0.01663466
3	0xbed31c26	-0.41232413
4	0xbdd042cd	-0.10168991
5	0x3f1700cb	0.58985585
6	0x3df1d3a7	0.118079476
7	0xbed78696	-0.42094868
8	0xbdbf805f	-0.09350657
9	0x3dc6ad38	0.097010076
10	0xbeaa2fcf	-0.332396
11	0xbd33ac92	-0.043865748
12	0xbef6a74f	-0.4817452
13	0x3d9093eb	0.07059463
14	0xbf4c6413	-0.798402
15	0xbdcccd96	-0.1000015

fc3.weight f4 [4, 16]
0	0xbd5414b0	-0.05177754
1	0x3e09b919	0.13449515
2	0x3fc395c6	1.5280082
3	0x402a6094	2.6621447
4	0x3e65b1bd	0.22431083
5	0xbe1538b6	-0.14572415
6	0x3e834bc8	0.25643754
7	0x401a136d	2.4074357
8	0xbe5d485e	-0.21609637
9	0x3dbabfd0	0.091186166
10	0xbd7458d0	-0.05965501
11	0xbe4d2ebe	-0.20037362
12	0x40271559	2.610678
13	0xbe1c0983	-0.15238003
14	0x3f90fff4	1.1328111
15	0x3d45a318	0.04825124
16	0xbe5b92b4	-0.21442682
17	0xbe33b56a	-0.17549673
18	0x3ffcb809	1.9743663
19	0x401f01e3	2.4844902
20	0x3de1b8e6	0.11021595
21	0x3e91da5d	0.2848691
22	0xbdc52369	-0.096258946
23	0x400c09bd	2.1880944
24	0xbe8e1d89	-0.2775691
25	0x3e31040b	0.17286699
26	0x3caee516	0.021349471
27	0x3db01244	0.08597234
28	0x40303bc5	2.753648
29	0x3d0eec41	0.034893278
30	0x3f9756e7	1.1823395
31	0x3c6f85f0	0.0146193355
32	0x3b98ad00	0.004659295
33	0xbdfa27a1	-0.1221459
34	0x400caf50	2.1982002
35	0x401474e6	2.319635
36	0xbe3e09b6	-0.18558392
37	0xbd35fd29	-0.044430885
38	0x3a87466a	0.0010320668
39	0x400c8e7d	2.1961968
40	0x3c69c39a	0.014267826
41	0xbb8e058d	-0.004334158
42	0xbc952183	-0.018204456
43	0x3c4beae8	0.012446143
44	0x40420b7b	3.0319507
45	0x3ab865df	0.0014068446
46	0x3f83a98f	1.028612
47	0x3e7d802c	0.24755925
48	0xbbc65bc0	-0.006053418
49	0xbe4d105a	-0.20025769
50	0x3f877f83	1.0585788
51	0x403a3711	2.909611
52	0xbe3eebe4	-0.18644673
53	0xbe81d35e	-0.25356573
54	0xbe4feb3e	-0.20304582
55	0x4019d2a9	2.4034827
56	0xbe314f93	-0.17315511
57	0xbe001a4c	-0.12510031
58	0xbc02401d	-0.007949856
59	0x3d8474bc	0.06467578
60	0x40206318	2.5060482
61	0xbe6aac20	-0.22917223
62	0x3f758b5b	0.95915765
63	0x3c0b303a	0.008495385

fc3.bias f4 [4]
0	0x3fc562a8	1.5420732
1	0x40075256	2.1144004
2	0x40335d2a	2.8025613
3	0x3f704690	0.9385767
